ml/dqn_target_model.pth (torch, 51554 bytes, 6 tensors)

fc1.weight f4 [128, 28]
000000 82 bc a8 3e b3 44 21 3d b1 51 8d 3e 10 e0 a1 3e
       0.3295632 0.039372157 0.27601388 0.3161626
000010 7d ed bc 3e d6 54 8e 3e d8 44 96 3e 4f cf 23 3e
       0.3689994 0.277991 0.293494 0.1599705
000020 7f d4 b0 3e 2d 50 84 3e 86 ec 44 3e 83 24 0c 3e
       0.34537122 0.2584242 0.19230852 0.13685803
000030 e5 fc 3d 3e 20 9e 1a 3e a9 0d 6a 3e 41 26 c2 3e
       0.18553503 0.15099382 0.22856773 0.3791981
000040 b4 50 b7 3e 3f 39 99 3d 02 7e 7c 3d 38 a8 be 3e
       0.3580376 0.07481622 0.061643608 0.37237716
000050 16 f3 67 3d 1e 83 d1 3d 5f 9b b8 3e b2 75 c3 3e
       0.05662831 0.10230087 0.3605604 0.38175732
000060 3c bf a4 3e 3b 09 72 3e 69 49 a3 3e 9e b6 aa 3d
       0.3217715 0.23636334 0.31891945 0.08335613
000070 cf 66 ad 3c 57 e5 69 3c c5 a7 c3 3e 39 82 c8 3d
       0.021167187 0.01427587 0.38213935 0.09790463
000080 3d 53 9f 3e c5 9d ca 3d 7f 06 7b 3d d7 25 8a 3e
       0.31118193 0.098933734 0.061285492 0.26981995
000090 a3 f8 8f 3e b1 05 a2 3e 94 e6 da 3d 5f 2b bf 3e
       0.28119382 0.31644967 0.106885105 0.37337777
0000a0 b5 af b0 3e b7 a4 b9 3d 3f 45 a4 3e 09 4d c5 3e
       0.34509054 0.0906462 0.3208408 0.38535336
0000b0 3d ff a7 3e e6 d7 33 3e 0f 9e c7 3c 49 0f 9a 3e
       0.3281192 0.17562827 0.02436736 0.30089787
0000c0 63 ee cc 3d 42 53 af 3e 17 22 8b 3e 4c 24 29 3e
       0.10006406 0.34243208 0.27174446 0.16517752
0000d0 0b e8 6a 3e 81 01 b0 3e df 53 9a 3e 07 a3 80 3d
       0.2294008 0.34376147 0.30142114 0.06281095
0000e0 60 00 ae 3e f4 23 20 3e 18 7b 9e 3c 5c a0 a5 3e
       0.3398466 0.15638715 0.019345805 0.32348907
0000f0 7b ad 4c 3e 95 f4 10 3e a8 30 3c 3e 56 97 02 3e
       0.19988053 0.141558 0.18377936 0.12753043
000100 03 a6 7f 3e a5 3b ae 3e 69 ea 88 3d 40 d8 a7 3e
       0.24965672 0.3402988 0.06685335 0.32782173
000110 2c bd c1 3e c8 74 2a 3e 24 65 56 3d d9 ed c5 3e
       0.3783964 0.16646111 0.05234255 0.38658026
000120 e1 8d 55 3e 8b 2f 4b 3e dc ae 88 3e e3 4b 1e 3e
       0.20854904 0.19842355 0.26695907 0.15458636
000130 7d a4 29 3e 93 6e b6 3e 35 7b 07 3e aa c3 86 3e
       0.16566654 0.35631236 0.13230594 0.26321155
000140 1c 4f b0 3e 94 19 9c 3e 0f c1 9e 3d e1 ee 74 3e
       0.34435356 0.30488265 0.07751667 0.2391925
000150 0a 89 4c 3d 18 38 70 3e fa d4 a5 3e f9 81 4f 3d
       0.049935378 0.23458898 0.3238905 0.05066106
000160 18 6f 96 3e 7f 7e 5b 3d 82 54 14 3e 7f 93 0e 3d
       0.29381633 0.053587433 0.14485362 0.034808632
000170 05 d6 99 3e a8 93 a8 3e 5d 6c 9c 3d 53 e5 60 3e
       0.30046096 0.32925153 0.07637856 0.2196248
000180 4a 65 94 3e bf 5b fb 3c 78 98 00 3d 73 12 8b 3e
       0.28983527 0.030683396 0.031395406 0.27162513
000190 d6 80 b0 3e ae cf f7 3c 1d e0 ae 3e f0 f6 b7 3e
       0.34473294 0.030250397 0.3415536 0.35930586
0001a0 66 73 2e 3e 35 f6 ab 3e de 0a bd 3e 69 e5 6e 3e
       0.17036209 0.3358628 0.36922354 0.233297
0001b0 be fa f2 3d 5c 5e 27 3e fe 6d 9d 3d 67 00 9f 3e
       0.118642315 0.16344589 0.07686995 0.31054994
0001c0 f9 48 e5 3d 6a 78 0f be 13 6d 0e 3d 65 a6 84 3d
       0.11195559 -0.14010778 0.03477199 0.0647705
0001d0 13 16 2c be e9 34 96 3d 6f 0c aa 3a a9 9e 1a be
       -0.16805296 0.073343106 0.0012973676 -0.15099587
0001e0 92 e0 c0 bd 59 40 d0 3d 8f 1e 57 bd 26 9a 0a 3d
       -0.094178334 0.10168523 -0.052519377 0.033838414
0001f0 0b 8e 26 be 26 82 1c 3d 96 5b c3 bd ce 4a 3c be
       -0.16265123 0.038210057 -0.09538953 -0.1838791
000200 f4 0a 3e be f5 7b 89 bd 05 ce 38 be 3f e5 32 3e
       -0.18558866 -0.06713096 -0.1804734 0.17470263
000210 de b3 37 be 40 5d 25 bd 42 3f 15 3e d2 33 2b 3e
       -0.17939708 -0.040372133 0.14574912 0.16718987
000220 85 56 13 3e 78 df 8e 3d dd fa 0f be 4e 7a bb 3c
       0.14388473 0.06976217 -0.1406054 0.022885468
000230 fb 6f a0 bd fb 7b a8 bd 22 d1 3f be 22 1c 2e 3e
       -0.078338586 -0.082267724 -0.18732122 0.1700292
000240 e9 4f 39 3e d8 cc 39 3e a2 cc 53 bd d3 60 0d be
       0.1809689 0.18144548 -0.051708825 -0.13806467
000250 92 2e 49 bc 87 37 cd 3d 64 4b 9a bd 92 95 ef bc
       -0.01227917 0.100203566 -0.07533911 -0.029246125
000260 9b 72 d0 3d a6 dc dc bc 76 a3 6a 3d 40 93 a3 3d
       0.10178109 -0.026960682 0.057284795 0.0798707
000270 86 57 c5 bd 2c bf 34 3e 0b 06 20 be c7 7d 8b 3d
       -0.096358344 0.17651051 -0.15627305 0.068110995
000280 5f 2d ec bc 01 f6 06 be 40 2b ae bd 59 1d 9e 3b
       -0.028830228 -0.1317978 -0.08504343 0.004825276
000290 9b ed 13 bd 5b 9f 1a 3e 42 d1 1b be c3 bf 20 be
       -0.03611527 0.15099852 -0.15216544 -0.15698151
0002a0 f0 e7 1c 3d 4c bf 17 3e d4 56 8c 3e 9f f7 ad 3e
       0.03830713 0.14819068 0.27409995 0.33977982
0002b0 37 cd 44 3e d4 36 fb 3d d9 11 3f 3e cf a4 93 3e
       0.19218908 0.12266317 0.18659152 0.28836676
0002c0 57 d5 ff 3c f4 71 9b 3e da 44 99 3e 3a e6 87 3e
       0.031229658 0.30360377 0.29935342 0.26542836
0002d0 25 11 c5 3e 55 6d 0e 3e f3 76 52 3e 17 f5 89 3e
       0.38489643 0.13908894 0.20553188 0.269448
0002e0 48 3f a0 3e 66 de 8e 3e eb ae a1 3e e1 f5 4c 3e
       0.3129828 0.27904052 0.31578764 0.2001567
0002f0 64 ce 38 3e e7 b8 42 3e 65 b3 4e 3e d4 72 b3 3d
       0.18047482 0.19015847 0.20185621 0.08762136
000300 56 30 93 3d 37 d2 4a 3e f1 1c 62 3e 42 1c 7a 3e
       0.07186954 0.19806753 0.22081353 0.24424842
000310 14 63 1d 3e ee 09 7d 3d 8d df 36 3e f5 45 bf 3e
       0.15369827 0.061777048 0.17858715 0.3735806
000320 43 e7 92 3e 73 9b 97 3e b5 22 af 3e c6 67 82 3e
       0.28692064 0.29610786 0.34206167 0.25469798
000330 f6 3c 25 3d 66 7b 55 3d bf d2 76 3e 7d b2 ac 3e
       0.04034134 0.052119635 0.24103831 0.33729926
000340 62 79 2e 3e fb fa cf 3d 70 8b 60 3d 10 78 8d 3d
       0.17038491 0.101552926 0.054820478 0.06907666
000350 ce 6f 2f 3e 14 eb 22 3e 2a 7a f2 3d 3b de a4 3e
       0.17132494 0.15909988 0.11839707 0.32200798
000360 3d c0 ac 3e fc 5a a8 3e b2 da c4 3e 5e f1 0d 3e
       0.33740416 0.32881916 0.384481 0.13861606
000370 2d 4e 47 3e 1f ac 43 3e 15 20 a2 3e 3b 0a 9a 3e
       0.19463415 0.19108628 0.31665102 0.3008593
000380 b6 ec b6 3e 3b 6f f0 3d e4 d9 b0 3d 6f b1 b8 3e
       0.3572747 0.117399655 0.08635309 0.3607287
000390 d8 66 1a 3e b8 7c 8e 3e e3 8c ed 3d b7 42 23 3e
       0.15078294 0.27829528 0.11599138 0.15943418
0003a0 b4 13 63 3e cc 3e ad 3d bb a6 d6 3c 69 a9 bf 3e
       0.22175485 0.08459243 0.02620255 0.37433937
0003b0 8d b4 bb 3e 66 c5 4f 3e a8 0e bb 3e 71 ad f0 3d
       0.36661187 0.20290145 0.3653462 0.11751831
0003c0 f4 51 6f 3e e1 0f 13 3e e6 d3 c2 3e 07 56 af 3e
       0.23371106 0.14361526 0.3805229 0.3424532
0003d0 f4 46 95 3e b2 82 21 3e 13 74 f8 3d 36 34 a8 3d
       0.29155695 0.15772513 0.121315144 0.082130834
0003e0 0e 79 c3 3e 20 b6 93 3e 76 34 a4 3e 4d 68 35 3e
       0.38178295 0.28849888 0.32071275 0.17715569
0003f0 58 20 87 3e 0c 3d 97 3e 5e 2a 80 3d 86 72 aa 3e
       0.26391864 0.29538763 0.06258081 0.332905

fc1.bias f4 [128]
000000 2d 25 1a 3d c4 eb ab 3d c8 3e 9b 3e a6 c8 83 3e
       0.03763311 0.08394578 0.30321336 0.2573902
000010 c5 c7 78 bb 78 aa 07 bd e8 5a 8f 3e dc a5 b7 3e
       -0.0037960869 -0.033121556 0.27999043 0.35868728
000020 92 42 7a 3d 68 a7 9d 3e d9 e1 e8 3c a3 84 4e 3e
       0.061098643 0.30791783 0.028428005 0.20167784
000030 a7 f5 ab bd ba 75 69 bd d5 19 1a 3d a4 8b 0a 3d
       -0.08396464 -0.05699704 0.03762229 0.033824578
000040 b7 f5 52 3e cf 3d c0 bd 7d 96 68 3d 27 29 aa 3e
       0.20601545 -0.09386789 0.05678414 0.33234522
000050 24 6c 7e bb e4 e3 03 3e 39 3d 94 bd 36 d0 7d 3e
       -0.003882178 0.12879902 -0.0723824 0.24786457
000060 8f e3 8f 3e 9f d1 2a 3e 51 7c ee 3d 0a 7f 06 be
       0.281033 0.16681527 0.11644805 -0.13134399
000070 60 ed ee bd ca b4 71 3e 05 83 ab bd 32 67 b1 bd
       -0.116663694 0.23604122 -0.08374599 -0.08662261
000080 9a 5f b4 3e a3 ad 32 3c be 98 b3 bd 24 55 bf 3e
       0.35229188 0.010905656 -0.08769368 0.37369645
000090 7c f4 73 3c b0 0a 1c be 2c 5e d8 bc b7 44 0c be
       0.014889833 -0.15238452 -0.026412092 -0.13698088
0000a0 d0 28 49 3e d0 de 29 3e b8 76 08 3e c9 08 99 3d
       0.19644475 0.16588902 0.13326538 0.07472379
0000b0 17 3f 0d 3e ab da 7d bd 7f 8a 10 3e 6d e3 94 3e
       0.13793598 -0.061976116 0.14115332 0.29079762
0000c0 9d e8 47 3e b7 69 a5 3e 57 27 a3 3d c7 b5 d6 3d
       0.19522329 0.32307217 0.07966488 0.1048389
0000d0 0a f9 23 be c3 64 76 3e 05 41 8c bd 4f 41 28 be
       -0.1601297 0.24061875 -0.06848339 -0.16431163
0000e0 c6 ff 07 3e d9 61 fa bd d7 63 84 bd 68 f3 66 3e
       0.13281164 -0.12225694 -0.064643554 0.2255379
0000f0 93 41 f7 3d 71 0f 6f 3e fa 15 4b 3e 21 27 1a bd
       0.12073054 0.23345734 0.19832602 -0.037634972
000100 2e 64 c2 3e 23 51 fd bd b3 e8 04 3d e5 9f 76 3e
       0.37967056 -0.12368991 0.03244848 0.24084432
000110 15 35 85 3e b8 f3 22 3e a2 73 ac 3e c7 3c 91 3d
       0.2601706 0.15913284 0.3368197 0.070916705
000120 3c 7a 22 b9 a9 17 d2 bd cf f8 db bd 0e eb 21 3e
       -0.0001549506 -0.10258419 -0.10740816 0.15812322
000130 a5 f4 c6 3e d1 dd 23 be b4 57 88 3d 61 b8 45 be
       0.38858524 -0.16002585 0.06657353 -0.19308616
000140 96 60 3b be fa 5a 47 be 31 1f 82 bd fd 5e e6 3d
       -0.18298563 -0.19468299 -0.063536055 0.11248586
000150 4b 40 a3 3e 20 18 03 3d 3a 53 ef bd 79 ba 83 3e
       0.3188499 0.03200543 -0.11685796 0.25728205
000160 65 c0 53 3d 23 66 9c 3e a0 0a b7 3e 8c 11 e8 bc
       0.051697154 0.30546674 0.35750294 -0.02832868
000170 b3 39 69 3e df 8f a5 bd 29 e4 a0 3d bf a9 7a 3d
       0.22775917 -0.08084082 0.07856018 0.06119704
000180 cb ab 02 be 1c a3 52 3e 09 72 08 3e 45 a5 bf 3e
       -0.12760846 0.20570034 0.13324751 0.37430778
000190 5c 43 55 3c df 8a ab 3e b8 d4 ee 3c a2 59 c2 bc
       0.013016548 0.33504388 0.029154167 -0.02372438
0001a0 3a 9e ae 3d 6a b5 79 3e c2 86 cc bd 25 6d 2c 3e
       0.08526273 0.2438561 -0.099866405 0.1683851
0001b0 bf be 2b 3e 11 22 fd bd 45 be da bd 07 f8 51 3e
       0.16771983 -0.12360013 -0.10680822 0.20504771
0001c0 7c e6 32 3e b4 cc bb 3d 0f 5b c8 3e 27 36 b4 bc
       0.17470735 0.091699034 0.39131972 -0.021998478
0001d0 f6 18 fe bc 92 35 46 3e e5 2b e2 3d 19 52 ae bd
       -0.031017762 0.19356373 0.110435285 -0.08511753
0001e0 ef 46 00 3e dc 4c 30 3e b1 e8 c2 3d b0 c8 1a 3e
       0.12527059 0.1721682 0.095170386 0.15115619
0001f0 83 4b d0 bd 45 a4 19 be c7 97 ab 3e ae 5e 8b 3e
       -0.10170653 -0.1500407 0.33514234 0.27220672

fc2.weight f4 [64, 128]
000000 63 59 b8 bc 52 e5 2d bd f9 b4 b4 bd 1a 95 0f 3d
       -0.02250356 -0.042455025 -0.0882358 0.035054304
000010 52 24 2a bc b4 17 9a 3d 32 63 24 bd 61 a0 f0 3c
       -0.010384636 0.07524052 -0.040133663 0.02937335
000020 e6 2e 6a bd 8e e6 4f bc f1 00 13 bd d5 10 a6 3d
       -0.057173632 -0.012689246 -0.03588957 0.08108679
000030 b8 09 42 3b c7 5d 8b b9 18 3a 4e 3d 47 96 68 3c
       0.0029607844 -0.00026582016 0.05034837 0.014195985
000040 bf 24 9b 3d 85 b7 b4 3c 94 b4 a8 bb 62 46 0e bd
       0.07575368 0.022060165 -0.0051484797 -0.03473509
000050 c2 36 22 3d 4f 99 f4 bb 27 02 0d 3d f2 2e 3b 3d
       0.039603002 -0.007464565 0.03442588 0.045699067
000060 85 7b 25 bc 26 12 a2 bd 59 d8 a4 3d 6c f6 e8 bc
       -0.01010025 -0.07913618 0.080490775 -0.028437816
000070 99 d3 2d bd 0b 73 30 3d 68 a3 83 3c 06 3b a9 bd
       -0.042438123 0.043078464 0.01606913 -0.08263211
000080 70 bf 7f 3d 0c f9 95 3d 27 e1 10 bd 8b 19 40 3d
       0.06243843 0.073228925 -0.035370972 0.04689936
000090 18 16 ac bd 24 96 a6 3c 37 6f db 3b 9e a2 86 3c
       -0.084026515 0.020335265 0.0066966075 0.016434964
0000a0 87 6f 82 bd 4b 6f e9 bc 3f e7 80 bd a3 78 87 3d
       -0.063689284 -0.028495451 -0.06294107 0.066148065
0000b0 1f a4 5e 3d b5 c7 19 bd 4a 30 fb bb e5 87 e8 3c
       0.054355737 -0.03754397 -0.0076656686 0.028385112
0000c0 20 f0 ac bd 5c 7b ed 3b 71 1b 2d 3b d0 49 3c 3d
       -0.08444238 0.0072473716 0.0026414061 0.04596883
0000d0 d4 ce 13 3d 81 fe b7 bc c4 7b 8e 3d 33 d1 96 bc
       0.03608592 -0.022460224 0.069572 -0.0184103
0000e0 d0 6b 5f 3d f3 f1 aa 3d 9a 18 6c bd bb 1d 8f bd
       0.054546177 0.083469294 -0.05764065 -0.069880925
0000f0 44 bf 1d 3d ca f6 8d 3c f0 91 46 bd 84 e0 9a 3d
       0.038512483 0.017329592 -0.04847902 0.07562354
000100 e6 1a 7b bb 2e 6b ae 3d c4 9c 82 bd fc f2 0e 3c
       -0.0038315593 0.08516537 -0.06377557 0.008724924
000110 6b af c8 3c f4 ea 8f bd e8 36 90 bd 1b 43 27 bd
       0.024497708 -0.070272356 -0.070417225 -0.04083548
000120 2c b6 8e 3d aa 3f 3b bd ad c6 5f bd 76 1d b3 3d
       0.0696834 -0.04571501 -0.05463283 0.087458536
000130 20 57 14 bd bf 88 84 bd 72 0a 7e bd 94 8c e4 3b
       -0.0362159 -0.06471395 -0.06202168 0.006974766
000140 98 89 4d 3d 51 cb 02 3d 75 c3 a7 bb 5d 22 63 3c
       0.050180048 0.03193218 -0.005119736 0.013863173
000150 a2 bd 25 bc ee 6b ab 3c 6f 31 28 bd c3 a4 6f bb
       -0.010116013 0.020925488 -0.04106277 -0.0036566711
000160 b4 1b e0 3c fb f1 75 3c af d3 9f 3d ec b0 00 3d
       0.02735696 0.015011306 0.07804047 0.031418726
000170 74 65 47 3d 70 f0 24 3c 48 37 b4 3d 48 01 35 3d
       0.048680738 0.01006709 0.087996066 0.044190675
000180 23 bb 90 3c 86 99 d4 3c 81 68 3c 3d 16 82 8f 3d
       0.017667359 0.025952112 0.0459981 0.07007234
000190 62 96 54 3d 10 21 89 bd 4a 19 0b 3d 8b cb 27 3d
       0.05190123 -0.06695759 0.033959664 0.040965598
0001a0 6f 8e ba bc 00 c6 85 3d b5 57 56 bd 86 00 a3 bd
       -0.022772996 0.06531906 -0.052329738 -0.07959084
0001b0 88 0e 04 3d 26 09 02 bd 57 49 0d bd ce 46 a2 3d
       0.03224042 -0.031747006 -0.03449377 0.07923661
0001c0 4a 41 ae 3d 91 a7 9e 3d 38 ce b3 bd 2d 52 98 bd
       0.08508547 0.077468045 -0.087795675 -0.07437549
0001d0 c6 66 91 bd 01 72 47 3d 5f dd 5a 3c bd 1c ad 3d
       -0.070996806 0.048692707 0.013358443 0.08452747
0001e0 25 62 93 bd 73 b9 78 bd 32 82 b9 3c c8 6d 3d bd
       -0.07196454 -0.060723733 0.02264509 -0.046247274
0001f0 c4 b4 aa 3d 06 11 d9 3c ce 95 97 bd 99 4b 87 3d
       0.083352596 0.026497375 -0.0740162 0.06606216
000200 25 14 95 3e d8 b3 6d 3e 43 cf 10 3e b6 88 64 3e
       0.29116932 0.23213136 0.14141564 0.22317776
000210 f4 2d 97 3d f9 d2 aa 3d 78 d1 2e 3e 53 d8 8b 3e
       0.07381812 0.08341021 0.17072093 0.2731348
000220 7f f6 45 3e 0a d3 85 3e 2f 79 9f bc 6c 3a 0a 3e
       0.19332312 0.26137573 -0.019466965 0.13498849
000230 70 9e ab bd b3 99 32 bd b0 f3 79 bd cc af df bc
       -0.08379829 -0.04360361 -0.061023414 -0.027305506
000240 5b db 4f 3e 7d 36 59 bd 5a ee 67 bd 42 2d 95 3e
       0.20298521 -0.05303048 -0.056623794 0.2913609
000250 ba c6 a1 3d 2e d4 4d 3e 8a d5 fc 3c a7 3b 9b 3e
       0.07899232 0.20100471 0.030863542 0.3031895
000260 dc c7 43 3e 68 83 05 3e ad 6a 58 3d bf 1e 2b bd
       0.19119209 0.13038409 0.05283611 -0.04177737
000270 12 f1 08 bc 87 f3 98 3e da a5 04 bd d8 66 8a 3d
       -0.008358257 0.29873297 -0.03238473 0.06757897
000280 ca 55 96 3e a2 07 33 3d 26 8a 44 3d 82 7d 82 3e
       0.29362327 0.04370845 0.04798331 0.2548638
000290 b5 2a 88 3d de b2 9d bc 46 b7 48 3d 70 61 80 bc
       0.06648771 -0.01925033 0.04900291 -0.015671462
0002a0 a0 af 22 3e f7 c0 6f 3e 0a 8b 8d 3e a4 03 64 3d
       0.15887308 0.23413454 0.2764514 0.055667534
0002b0 ca e3 26 bd 46 ad 4c bd 01 7c 8b bd bb bf 8c 3e
       -0.04074458 -0.049969934 -0.06810761 0.2749003
0002c0 d2 00 91 3e 08 32 54 3e e6 bf 99 3d 53 f3 1a 3e
       0.28320938 0.2072221 0.07507305 0.15131883
0002d0 7c bf 43 bd 17 25 8d 3e ce c1 78 3d be 0b d9 bb
       -0.047790036 0.2756736 0.0607317 -0.006623714
0002e0 a4 23 75 3e 46 93 92 bd c3 af 5d bb 6d ac 5a 3e
       0.23939377 -0.071569964 -0.0033826686 0.21354838
0002f0 aa bf 70 3e 62 4a 8d 3e 0f 76 3b 3e 60 04 0d 3d
       0.23510614 0.27595812 0.18306755 0.034428
000300 84 c8 14 3e d4 33 61 b9 69 53 85 3e 28 ac 43 3e
       0.14529616 -0.0002147698 0.260402 0.19108641
000310 2b dd 76 3e 33 6d a9 bd c3 16 86 3e 96 7d 79 3d
       0.24107806 -0.08272781 0.2618924 0.060910784
000320 6e 2e 7c 3d de c7 84 bd 56 88 af bd 2a 0a 0e 3e
       0.061567716 -0.06483434 -0.08570926 0.13871065
000330 cd ec 6e 3e a6 9e 3d 3d 2f ba 8c 3e 2b 0e 3d 3d
       0.2333252 0.046293877 0.27485797 0.04615609
000340 ef c2 9a bd c8 86 e0 3c c0 29 44 bc 08 27 51 3d
       -0.07556712 0.027408019 -0.011972845 0.051062614
000350 40 47 4f 3e 99 b6 cc bb f0 e1 b2 bd 3e d1 72 3e
       0.20242023 -0.0062473533 -0.087345004 0.23712632
000360 ea d6 66 bd a6 3c 63 3e da 44 34 3e 80 6b 3c 3c
       -0.0563573 0.22191104 0.1760439 0.011500239
000370 84 42 87 3e 4c e5 2d bd db 7e 4d 3e 74 36 a3 3c
       0.26417935 -0.042455003 0.20067923 0.019923426
000380 ab 24 d9 bc 22 e7 4c 3e ad d4 6f 3d f9 62 1b 3e
       -0.026506742 0.20010045 0.058552433 0.15174474
000390 bb 64 5d 3c 5a 64 0a 3e 5e 00 32 3e a1 87 26 bd
       0.013512786 0.13514844 0.17382953 -0.04065669
0003a0 94 e9 9b 3d 87 cb 06 3e bf 1f 0a 3d b1 d5 fd 3d
       0.07612911 0.13163577 0.03372168 0.12394274
0003b0 4e 95 23 3e 61 bb ad 3d 23 99 a3 3b 9a c9 63 3e
       0.15974924 0.08483005 0.0049926206 0.22244874
0003c0 52 6f 2c 3e 38 85 85 bd fe 66 5b 3e 5a 43 59 bd
       0.1683934 -0.0651955 0.21426007 -0.053042747
0003d0 a5 50 dd bc c9 b1 8f 3e 1e ec 34 3e bd 3a 03 bb
       -0.027015993 0.28065327 0.17668197 -0.0020024024
0003e0 2d 33 6e 3d 89 66 8b 3e d7 4b 04 3e 3a eb 99 3e
       0.058154274 0.27226666 0.12919556 0.30062276
0003f0 e2 4d 91 3b 1c 67 b0 bd 54 e3 3c 3e bc c9 73 3e
       0.004434333 -0.086134166 0.18446094 0.23807424

fc2.bias f4 [64]
000000 fa dd 20 bd 3f 3c 88 3e 47 18 8c bc 6c 6f 23 3c
       -0.039274193 0.26608464 -0.01710142 0.0099752955
000010 d9 c4 d6 3d b2 9e ae 3c 05 52 dd 3d 36 b6 6b 3e
       0.104867645 0.021315906 0.108066596 0.23018727
000020 bf 3b 4f bd 0c 54 5a 3e 3d 9b 77 bd 04 98 1b 3d
       -0.050594088 0.21321124 -0.06045078 0.03798677
000030 77 fa 30 bd 95 6b 42 3e 46 b4 8b 3d 9c a3 65 3e
       -0.043207612 0.18986352 0.06821494 0.22425693
000040 b4 d3 41 3e 56 c6 b6 bd e5 59 6f 3d 3c e6 6d 3e
       0.18928415 -0.08924548 0.05843534 0.23232359
000050 55 c4 a1 bd 20 53 e7 bc 8d b4 34 3b 2d b6 41 3e
       -0.078987755 -0.02823788 0.0027573437 0.18917151
000060 eb 8f 0c 3e 7f 4c 10 bc fb a1 52 3e 63 3c 94 bb
       0.13726775 -0.008807301 0.20569603 -0.0045238
000070 65 e9 0e 3e f7 de 41 3e e5 39 8b bd 4e c0 6d 3e
       0.1395622 0.1893271 -0.06798152 0.2321789
000080 dd e9 75 3e 85 5d 3a 3e 14 7b 2a 3d 73 a9 07 3e
       0.24014993 0.18199737 0.041621283 0.13248233
000090 d7 02 71 3e 11 39 22 3e c6 4a 36 3e 52 e4 95 3d
       0.2353624 0.15842082 0.17801961 0.07318939
0000a0 13 17 8a 3c 05 01 41 3e 00 66 0d 3d 74 e7 51 bd
       0.016856706 0.18848045 0.034521103 -0.05124612
0000b0 e1 48 2e bd 09 25 d3 bd 23 ec 04 3d 72 8b 7c 3d
       -0.04254997 -0.10309798 0.03245176 0.061656423
0000c0 e4 dc 9c bd b6 5f 4a 3e d7 18 56 3e c4 4a 26 3d
       -0.07659319 0.19763073 0.20907913 0.040598646
0000d0 55 d3 52 3e 20 8c 87 bd 34 17 35 3c a6 86 90 3d
       0.2058843 -0.066185236 0.011052895 0.07056932
0000e0 ad f3 a3 bd 35 a5 3d 3e bb 0d 96 bd 45 86 6a bd
       -0.08005462 0.18520053 -0.07326838 -0.057256956
0000f0 be 74 8b bd a8 b9 35 3e 44 11 81 bd 28 56 f5 3d
       -0.06809376 0.17746603 -0.06302121 0.119793236

fc3.weight f4 [4, 64]
000000 7e 57 b8 bd fb 89 b4 be 04 cc 18 bd 1d 89 8e 3d
       -0.09001063 -0.3526152 -0.03730394 0.06959746
000010 17 8f 91 be f1 c4 54 3d c2 c6 52 be de 34 27 be
       -0.2842948 0.05194563 -0.20583633 -0.16328761
000020 4b fc 93 bd 76 6d 55 be b8 99 ce bd ea f2 c5 bd
       -0.072258554 -0.20842537 -0.10087913 -0.09665473
000030 be bc c4 bd 6f be 17 be 36 24 83 bd 12 9e 35 be
       -0.09606312 -0.14818738 -0.06403391 -0.1773608
000040 51 48 69 be ea ed 22 bd c2 5c b1 3c 8a 84 98 be
       -0.22781493 -0.039777674 0.021650676 -0.2978862
000050 d1 92 52 3c 92 da e0 3d 41 1b 76 3d 8d b7 04 be
       0.012852387 0.10979189 0.060084585 -0.12960644
000060 5c 67 41 be 4a c0 c2 bd 20 92 de bd 66 03 94 bd
       -0.18887085 -0.095093325 -0.10867715 -0.07227211
000070 68 03 45 be f9 68 92 be 6a 15 db 3d 10 55 39 be
       -0.1923958 -0.28595713 0.10697444 -0.18098855
000080 74 1e 68 be 85 39 5f be fa d8 6c 3d 9a 15 7f be
       -0.22667867 -0.21799286 0.057824112 -0.24910584
000090 ff d2 a2 be 79 7b b4 be 81 b9 60 be 2e 35 75 bb
       -0.31801602 -0.35250452 -0.21945764 -0.003741573
0000a0 88 0c 9c 3d 44 24 10 be 58 7d c7 bc 0b dd df 3d
       0.07619578 -0.14076334 -0.02435176 0.109308325
0000b0 08 be ca 3d 22 0e 9f bd 38 99 d0 3c 69 b0 67 bd
       0.09899527 -0.077663675 0.025463685 -0.056564722
0000c0 79 c7 e6 3d ea ee 1c be 29 3e 0e be 08 84 50 bb
       0.11268515 -0.15325513 -0.138909 -0.0031816978
0000d0 04 1b 9b be 62 b7 9f bd 08 53 02 bd 41 be 7e be
       -0.3029405 -0.07798649 -0.031817466 -0.24877264
0000e0 cc 04 e3 3d 7f 32 51 be 5c 6a 4f 3d ce 05 ab 3d
       0.11084899 -0.20429419 0.05063854 0.083507165
0000f0 c8 a3 3e 3d 2c 4d 3f be 00 65 90 3a 00 ef 84 be
       0.046542913 -0.18681782 0.0011016428 -0.25963593
000100 fe 11 ae bd 61 69 81 be 3c b1 bf bd fc 8e ac 3d
       -0.084995255 -0.2527571 -0.09359977 0.084257096
000110 cd b1 28 be f5 85 d8 3b bc b0 16 be 94 4b 87 be
       -0.16474076 0.006607766 -0.14715856 -0.2642485
000120 7e 74 65 3d 32 cb 97 be ba 96 8c bd 45 c2 b7 3d
       0.0560193 -0.29647213 -0.06864686 0.08972601
000130 50 fb cb bc 85 7b 46 be 34 05 99 3d 1c 97 85 be
       -0.024900109 -0.19383056 0.074716955 -0.2609185
000140 8e 4d 96 be 28 99 27 bd 1b a4 63 bd 90 9e 94 be
       -0.29356045 -0.040917546 -0.055576425 -0.29027224
000150 89 95 b3 3d 13 d5 69 3c c3 e0 3f bc 7e 56 8b be
       0.08768756 0.014271992 -0.011711302 -0.27214426
000160 7c 85 a8 bd 6c 9d 9c bd 8a 6a 89 be b8 bd 52 3d
       -0.08228585 -0.07647213 -0.26839095 0.05145046
000170 24 38 90 be 6c 7d 3b be 20 82 c0 bc d8 8c 46 be
       -0.28167832 -0.18309563 -0.023499548 -0.19389665
000180 50 d8 5c be a9 94 42 be 1c 4a c0 3c 78 bd 47 be
       -0.21566892 -0.19002022 0.023472838 -0.1950587
000190 15 e4 98 be 77 81 98 be 8a 16 6d be 0e 79 87 3d
       -0.29861513 -0.29786274 -0.23153129 0.06614886
0001a0 80 6b 77 3b 9b 78 61 be a0 b2 a4 3b 02 85 76 3d
       0.0037753284 -0.22018664 0.0050261766 0.06018544
0001b0 e0 dc 7f 3c 12 10 f2 bc 9c ab 85 bb 8e 97 c1 3d
       0.015616626 -0.029548679 -0.0040792953 0.09452735
0001c0 f5 48 47 3d b9 75 75 be 80 25 99 be 3f 24 8b 3d
       0.04865356 -0.23970689 -0.29911423 0.06794023
0001d0 8a 8c 9d be 60 99 a6 bc 28 20 c6 bd 5e 1d 16 be
       -0.30771285 -0.020336807 -0.09674102 -0.1465964
0001e0 88 40 eb bd 34 9e 4f be c8 41 c1 bd 76 93 ea 3b
       -0.11486918 -0.20275193 -0.09436375 0.007158692
0001f0 d4 49 f5 bd 65 d7 11 be 8a 7d a6 bd e4 23 9e be
       -0.11976972 -0.14242323 -0.081294134 -0.30886757
000200 98 21 2f bd a6 6e 18 be cc 32 cf 3d 79 a7 85 bc
       -0.042756647 -0.14885959 0.101171106 -0.016315209
000210 43 c6 7e be 3e 4a c9 3d 51 43 92 be 33 c9 9c be
       -0.24880318 0.09828614 -0.28566983 -0.30622253
000220 40 9f ee 3d 63 ee 46 be ce 7b a1 3d 80 41 59 bb
       0.11651468 -0.19426875 0.07884942 -0.0033150613
000230 d4 07 6c bd 25 8e 8b be 3a 0a de 3d ae 1f fe bd
       -0.057624653 -0.27256885 0.10841794 -0.12408386
000240 58 1a 3c be c0 c1 62 bb 96 8e ee 3d 3b f2 22 be
       -0.18369424 -0.0034600347 0.1164829 -0.15912716
000250 fe 75 ce bd 9f 65 7e 3d 8f ee 82 bc 2f 96 a7 be
       -0.10081099 0.062108632 -0.015982894 -0.32731768
000260 cb 6b 9c be b0 fa 4e 3c 21 ee 94 be 60 2b 3c 3c
       -0.3055099 0.012633011 -0.29087928 0.011484951
000270 e1 f0 5d be ad 44 a7 be 32 72 f5 3d 1f df 05 be
       -0.2167392 -0.32669583 0.11984672 -0.13073395
000280 96 bd 48 be 52 9d 22 be c3 3b 71 bd 20 14 23 be
       -0.19603571 -0.15880325 -0.058894884 -0.15925646
000290 03 17 34 be 01 4f 10 be 32 f4 8a be d2 3a 28 bd
       -0.17586903 -0.14092638 -0.2713943 -0.04107172
0002a0 d0 63 8c bd 52 57 31 be 28 57 67 3d a4 08 23 3d
       -0.06854975 -0.17318466 0.056479603 0.039803162
0002b0 14 68 0d 3d 3c 39 8d 3d 80 04 f8 bd 45 38 38 3d
       0.034523085 0.06895682 -0.12110233 0.044975538
0002c0 58 7c 4c bd c3 bc 8c be d2 18 23 be dd 74 9f bd
       -0.04992327 -0.27487764 -0.15927437 -0.07785962
0002d0 c1 a7 a9 be 14 3a 34 bd d8 58 e1 bd 04 84 28 be
       -0.331358 -0.0440007 -0.11003274 -0.1645661
0002e0 ec 3f 22 3d ee 0f 93 be e0 2c 28 bd c8 3c 5a 3d
       0.039611742 -0.2872309 -0.04105842 0.05328062
0002f0 4a c9 a4 3d b3 ba 99 be e4 6b bd bd 96 c6 a8 be
       0.08046205 -0.30025253 -0.09249094 -0.3296401
000300 78 60 9d bd 0f 75 04 be a0 0d c4 bc 24 44 7b bd
       -0.076844156 -0.1293528 -0.023932278 -0.06134428
000310 17 81 55 be 9d 70 30 bd 55 24 a5 be f5 b9 f0 bd
       -0.20850025 -0.043076146 -0.32254282 -0.117542185
000320 ce 7d 44 bd c3 b4 3a be 8e fc cf bd 18 6b ae 3d
       -0.04797154 -0.18233018 -0.10155593 0.0851652
000330 c4 2a 22 3d c3 b7 6a be 70 9c 30 3c e5 2e 94 be
       0.039591566 -0.22921662 0.010779485 -0.28942028
000340 bd 29 8c be 5e f6 82 3d 9d 00 b8 bc a1 b1 9f be
       -0.27375594 0.06394647 -0.02246123 -0.31190208
000350 da da 2a ba d6 cb 74 bd c9 67 8e 3d c1 55 6b be
       -0.0006517597 -0.059764706 0.06953389 -0.22981931
000360 62 9a 8f be c0 78 d7 bb ca 98 67 be e4 3f 2d bd
       -0.28047472 -0.006575674 -0.22616878 -0.04229726
000370 f9 4c 93 be 2b 15 97 be 4a b1 81 bd 4c 53 99 be
       -0.28769663 -0.29508337 -0.06332643 -0.29946363
000380 91 ab a4 be 3e 6f 8a be a7 6b c4 3b 8e ee 76 be
       -0.32162145 -0.27037996 0.0059942785 -0.24114439
000390 94 10 24 be 8c 65 3c be 47 d2 fc bd a9 dc ca bc
       -0.16021949 -0.18398112 -0.12344795 -0.024763422
0003a0 50 4a 34 bc 28 92 a8 be c4 47 f4 bd 67 f2 a2 bd
       -0.011004046 -0.32924008 -0.11927751 -0.07956391
0003b0 90 cc 21 bd fc 89 78 3c 6c fc 0c 3d 94 57 3d ba
       -0.039501727 0.015169617 0.034420416 -0.0007222828
0003c0 c8 ab 32 3c 0f a7 a2 be 27 3d 80 be 20 3c 63 3a
       0.010905214 -0.3176808 -0.25046656 0.0008668322
0003d0 a3 06 cc bd 36 13 eb bd 24 b8 98 bd 9c 0d 1a be
       -0.09962203 -0.114782736 -0.07456997 -0.15044254
0003e0 9e 7f ee 3d 7a 08 49 be 60 cc d3 bb 2c 6c 9f 3d
       0.11645435 -0.1963214 -0.0064635724 0.07784304
0003f0 dc fe 8b 3d 08 f3 95 be f8 be ca 3d 7d 09 49 be
       0.0683572 -0.2928698 0.09899706 -0.19632526

fc3.bias f4 [4]
000000 3e 5b 14 be e2 e7 56 3b a1 76 69 be 6d 0f 59 be
       -0.14487931 0.0032792022 -0.2279916 -0.2119729
