ml/dqn_model.pth (torch, 51484 bytes, 6 tensors)

fc1.weight f4 [128, 28]
000000 78 0a aa 3e 67 b4 2b 3d a7 9f 8e 3e 06 2e a3 3e
       0.33211112 0.041920092 0.2785618 0.3187105
000010 73 3b be 3e cc a2 8f 3e dd 8b 8f 3e 3c 6b 26 3e
       0.3715473 0.28053892 0.28036395 0.16251844
000020 75 22 b2 3e 23 9e 85 3e 73 88 47 3e 70 c0 0e 3e
       0.34791914 0.2609721 0.19485645 0.13940597
000030 d2 98 40 3e f6 06 1b 3e 96 a9 6c 3e 37 74 c3 3e
       0.18808296 0.15139374 0.23111567 0.38174602
000040 aa 9e b8 3e 19 71 9e 3d db 76 83 3d 2e f6 bf 3e
       0.3605855 0.077364154 0.06419154 0.37492508
000050 cf 31 83 3d f8 ba d6 3d 55 e9 b9 3e a8 c3 c4 3e
       0.064059846 0.1048488 0.3631083 0.38430524
000060 32 0d a6 3e 28 a5 74 3e 5f 97 a4 3e 6f 8c c5 3d
       0.32431942 0.23891127 0.32146737 0.09645926
000070 a5 bf c2 3c 82 4b 8a 3c 53 fd c4 3e 6d d8 cd 3d
       0.023773024 0.016881708 0.3847452 0.100510456
000080 cb a8 a0 3e f9 f3 cf 3d 15 11 44 3d 65 7b 8b 3e
       0.3137878 0.10153956 0.047867853 0.2724258
000090 31 4e 91 3e 3f 5b a3 3e c8 3c e0 3d ed 80 c0 3e
       0.28379968 0.31905553 0.10949093 0.37598363
0000a0 43 05 b2 3e 5b 2a ba 3d cd 9a a5 3e 97 a2 c6 3e
       0.3476964 0.0909011 0.32344666 0.3879592
0000b0 cb 54 a9 3e 02 83 36 3e e5 f6 dc 3c d7 64 9b 3e
       0.33072504 0.17823413 0.026973197 0.30350372
0000c0 c9 78 dc 3d d0 a8 b0 3e a5 77 8c 3e 68 cf 2b 3e
       0.107652254 0.34503794 0.27435032 0.16778338
0000d0 27 93 6d 3e 0f 57 b1 3e 6d a9 9b 3e 74 10 9c 3d
       0.23200665 0.34636733 0.304027 0.07620326
0000e0 85 43 af 3e 3c aa 22 3e 60 ad b2 3c 81 e3 a6 3e
       0.342312 0.15885252 0.021811187 0.32595447
0000f0 c3 33 4f 3e dd 7a 13 3e 27 e7 2e 3e 9e 1d 05 3e
       0.2023459 0.14402337 0.17080365 0.1299958
000100 27 16 81 3e ca 7e af 3e fb f6 8d 3d 65 1b a9 3e
       0.25212213 0.3427642 0.069318734 0.33028713
000110 51 00 c3 3e 76 97 2a 3e 48 7e 60 3d fe 30 c7 3e
       0.3808618 0.1665934 0.05480793 0.38904566
000120 29 14 58 3e d3 b5 4d 3e 01 f2 89 3e 2b d2 20 3e
       0.2110144 0.20088892 0.26942447 0.15705173
000130 72 ac 30 3e b8 b1 b7 3e 7d 01 0a 3e cf 06 88 3e
       0.17253283 0.35877776 0.1347713 0.26567695
000140 41 92 b1 3e b9 5c 9d 3e a1 cd a3 3d e1 0b 81 3e
       0.34681895 0.30734804 0.07998205 0.25204375
000150 57 cc 56 3d eb c8 72 3e 65 1d a7 3e 47 c5 59 3d
       0.052440967 0.23709457 0.32639614 0.053166654
000160 83 b7 97 3e cc c1 65 3d 27 0c 07 3e cc d6 18 3d
       0.29632196 0.056093022 0.1318823 0.03731422
000170 70 1e 9b 3e 13 dc a9 3e 04 8e a1 3d 26 76 63 3e
       0.3029666 0.33175716 0.078884155 0.22213039
000180 b5 ad 95 3e 50 98 fd 3c c5 db 0a 3d de 5a 8c 3e
       0.2923409 0.030956417 0.033900995 0.27413076
000190 41 c9 b1 3e 25 2b 06 3d 88 28 b0 3e 5b 3f b9 3e
       0.34723857 0.03275599 0.34405923 0.3618115
0001a0 fc e3 35 3e a0 3e ad 3e 49 53 be 3e 3c 76 71 3e
       0.1776275 0.33836842 0.37172917 0.23580259
0001b0 65 1c f8 3d 2f ef 29 3e a5 8f a2 3d e2 af a5 3e
       0.12114791 0.16595148 0.07937554 0.3236075
0001c0 f9 48 e5 3d 6a 78 0f be 13 6d 0e 3d 65 a6 84 3d
       0.11195559 -0.14010778 0.03477199 0.0647705
0001d0 13 16 2c be e9 34 96 3d 6f 0c aa 3a a9 9e 1a be
       -0.16805296 0.073343106 0.0012973676 -0.15099587
0001e0 92 e0 c0 bd 59 40 d0 3d 8f 1e 57 bd 26 9a 0a 3d
       -0.094178334 0.10168523 -0.052519377 0.033838414
0001f0 0b 8e 26 be 26 82 1c 3d 96 5b c3 bd ce 4a 3c be
       -0.16265123 0.038210057 -0.09538953 -0.1838791
000200 f4 0a 3e be f5 7b 89 bd 05 ce 38 be 3f e5 32 3e
       -0.18558866 -0.06713096 -0.1804734 0.17470263
000210 de b3 37 be 40 5d 25 bd 42 3f 15 3e d2 33 2b 3e
       -0.17939708 -0.040372133 0.14574912 0.16718987
000220 85 56 13 3e 78 df 8e 3d dd fa 0f be 4e 7a bb 3c
       0.14388473 0.06976217 -0.1406054 0.022885468
000230 fb 6f a0 bd fb 7b a8 bd 22 d1 3f be 22 1c 2e 3e
       -0.078338586 -0.082267724 -0.18732122 0.1700292
000240 e9 4f 39 3e d8 cc 39 3e a2 cc 53 bd d3 60 0d be
       0.1809689 0.18144548 -0.051708825 -0.13806467
000250 92 2e 49 bc 87 37 cd 3d 64 4b 9a bd 92 95 ef bc
       -0.01227917 0.100203566 -0.07533911 -0.029246125
000260 9b 72 d0 3d a6 dc dc bc 76 a3 6a 3d 40 93 a3 3d
       0.10178109 -0.026960682 0.057284795 0.0798707
000270 86 57 c5 bd 2c bf 34 3e 0b 06 20 be c7 7d 8b 3d
       -0.096358344 0.17651051 -0.15627305 0.068110995
000280 5f 2d ec bc 01 f6 06 be 40 2b ae bd 59 1d 9e 3b
       -0.028830228 -0.1317978 -0.08504343 0.004825276
000290 9b ed 13 bd 5b 9f 1a 3e 42 d1 1b be c3 bf 20 be
       -0.03611527 0.15099852 -0.15216544 -0.15698151
0002a0 39 9c 27 3d 5f 6c 1a 3e 5c ad 8d 3e 27 4e af 3e
       0.04092047 0.15080403 0.27671325 0.34239313
0002b0 4a 7a 47 3e 7c 48 00 3e 65 0e 31 3e 57 fb 94 3e
       0.19480243 0.1252765 0.17290647 0.29098007
0002c0 f6 9e 0a 3d 7c c8 9c 3e 62 9b 9a 3e c2 3c 89 3e
       0.033843003 0.30621707 0.30196673 0.26804167
0002d0 ad 67 c6 3e 90 78 0e 3e 06 24 55 3e 9f 4b 8b 3e
       0.38750973 0.13913178 0.20814523 0.27206132
0002e0 d0 95 a1 3e ee 34 90 3e 73 05 a3 3e f4 a2 4f 3e
       0.3155961 0.28165382 0.31840095 0.20277005
0002f0 c3 36 40 3e fa 65 45 3e 78 60 51 3e f9 cc b8 3d
       0.1877089 0.19277182 0.20446956 0.090234704
000300 7b 8a 98 3d 4a 7f 4d 3e 04 ca 64 3e 53 e3 83 3e
       0.07448288 0.20068088 0.22342688 0.25759372
000310 b7 e9 1f 3e 3b 92 83 3d 30 66 39 3e 46 89 c0 3e
       0.15616499 0.064243756 0.18105388 0.3760473
000320 94 2a 94 3e c4 de 98 3e 13 8f a8 3e 17 ab 83 3e
       0.28938735 0.29857457 0.32921657 0.2571647
000330 7d 57 2f 3d ed 95 5f 3d 62 59 79 3e ce f5 ad 3e
       0.042808045 0.05458634 0.24350503 0.33976597
000340 05 00 31 3e 4e 99 d0 3d f7 a5 6a 3d 55 85 92 3d
       0.17285164 0.101854905 0.057287183 0.07154337
000350 71 f6 31 3e b7 71 25 3e 6e 87 f7 3d 8c 21 a6 3e
       0.17379166 0.1615666 0.12086378 0.3244747
000360 e7 6d b0 3e 4d 9e a9 3e 03 1e c6 3e 01 78 10 3e
       0.3445885 0.33128586 0.38694772 0.14108278
000370 d0 d4 49 3e c2 32 46 3e 66 63 a3 3e af a1 a0 3e
       0.19710088 0.193553 0.31911772 0.31373355
000380 f3 43 b8 3e 2e cc f5 3d d7 36 b6 3d ac 08 ba 3e
       0.3598934 0.12001835 0.088971786 0.3633474
000390 53 15 1d 3e f5 d3 8f 3e 62 c3 d1 3d 32 f1 25 3e
       0.15340166 0.28091398 0.102423444 0.1620529
0003a0 2e c2 65 3e bf 9b b2 3d 8d 1a ec 3c a6 00 c1 3e
       0.22437355 0.087211125 0.028821254 0.37695807
0003b0 ca 0b bd 3e 23 e3 4f 3e e5 65 bc 3e 64 0a f6 3d
       0.36923057 0.2030149 0.3679649 0.120137006
0003c0 6f 00 72 3e 5c be 15 3e 23 2b c4 3e 44 ad b0 3e
       0.23632978 0.14623398 0.3831416 0.3450719
0003d0 04 0f 99 3e 2c 31 24 3e 06 d1 fd 3d 29 91 ad 3d
       0.2989427 0.16034383 0.12393384 0.08474953
0003e0 4b d0 c4 3e 5d 0d 95 3e b3 8b a5 3e be 27 43 3e
       0.38440165 0.29111758 0.32333145 0.19058129
0003f0 a4 75 88 3e 58 92 98 3e 8d 7f 85 3d d2 c7 ab 3e
       0.26652253 0.2979915 0.06518469 0.33550888

fc1.bias f4 [128]
000000 e1 94 24 3d f8 41 b1 3d ed 81 9c 3e 11 11 85 3e
       0.040181044 0.08655161 0.30567876 0.25989583
000010 c5 c7 78 bb 78 aa 07 bd 70 b1 90 3e 2d e9 b8 3e
       -0.0037960869 -0.033121556 0.28260374 0.361154
000020 3c 7e 82 3d b4 fc 9e 3e d9 e1 e8 3c eb 49 51 3e
       0.063717335 0.31052172 0.028428005 0.20438354
000030 a7 f5 ab bd ba 75 69 bd d5 19 1a 3d a4 8b 0a 3d
       -0.08396464 -0.05699704 0.03762229 0.033824578
000040 9f 99 55 3e cf 3d c0 bd 7d 96 68 3d 90 7d ab 3e
       0.20859383 -0.09386789 0.05678414 0.33494234
000050 24 6c 7e bb 1e 8d 06 3e 39 3d 94 bd bf 3a 80 3e
       -0.003882178 0.1313977 -0.0723824 0.2504482
000060 d4 4d 91 3e 73 7c 2d 3e 51 7c ee 3d 0a 7f 06 be
       0.2837969 0.16942005 0.11644805 -0.13134399
000070 60 ed ee bd 3d 73 74 3e 05 83 ab bd 32 67 b1 bd
       -0.116663694 0.23872085 -0.08374599 -0.08662261
000080 63 bd b5 3e a3 ad 32 3c be 98 b3 bd e5 a8 c0 3e
       0.35496053 0.010905656 -0.08769368 0.37628856
000090 7c f4 73 3c b0 0a 1c be 2c 5e d8 bc b7 44 0c be
       0.014889833 -0.15238452 -0.026412092 -0.13698088
0000a0 91 bd 4b 3e 5c 84 2c 3e 97 03 0b 3e c9 08 99 3d
       0.19896533 0.16847366 0.13575588 0.07472379
0000b0 17 3f 0d 3e ab da 7d bd 7f 8a 10 3e 2d 56 96 3e
       0.13793598 -0.061976116 0.14115332 0.29362622
0000c0 15 93 4a 3e 97 bf a6 3e 57 27 a3 3d 61 38 dc 3d
       0.1978267 0.32568046 0.07966488 0.10752941
0000d0 0a f9 23 be 8e 12 79 3e 05 41 8c bd 4f 41 28 be
       -0.1601297 0.24323484 -0.06848339 -0.16431163
0000e0 aa d1 0a 3e d9 61 fa bd d7 63 84 bd 7a 92 69 3e
       0.13556543 -0.12225694 -0.064643554 0.22809783
0000f0 d5 77 fc 3d 62 b2 71 3e e1 c1 4d 3e 21 27 1a bd
       0.12327544 0.23603204 0.2009349 -0.037634972
000100 8a b1 c3 3e 23 51 fd bd b8 60 0f 3d 73 57 79 3e
       0.3822139 -0.12368991 0.035004348 0.24349765
000110 0d 8b 86 3e b8 f3 22 3e 5f b7 ad 3e c7 3c 91 3d
       0.26277962 0.15913284 0.33928964 0.070916705
000120 3c 7a 22 b9 a9 17 d2 bd cf f8 db bd 7a a5 24 3e
       -0.0001549506 -0.10258419 -0.10740816 0.1607875
000130 82 53 c8 3e d1 dd 23 be 45 c2 8d 3d 61 b8 45 be
       0.3912621 -0.16002585 0.069218196 -0.19308616
000140 96 60 3b be fa 5a 47 be 31 1f 82 bd fd 5e e6 3d
       -0.18298563 -0.19468299 -0.063536055 0.11248586
000150 89 a2 a4 3e 20 18 03 3d 3a 53 ef bd a0 12 85 3e
       0.32155254 0.03200543 -0.11685796 0.25990772
000160 65 c0 53 3d be b4 9d 3e b2 74 b8 3e 8c 11 e8 bc
       0.051697154 0.30801958 0.3602653 -0.02832868
000170 fd 2c 6c 3e df 8f a5 bd d2 5c a6 3d bf a9 7a 3d
       0.23064037 -0.08084082 0.08123173 0.06119704
000180 cb ab 02 be 5f cf 55 3e 09 72 08 3e b0 01 c1 3e
       -0.12760846 0.20879887 0.13324751 0.376966
000190 5c 43 55 3c be d5 ac 3e 14 1d 02 3d a2 59 c2 bc
       0.013016548 0.33756822 0.031766012 -0.02372438
0001a0 3a 9e ae 3d ab 44 7c 3e c2 86 cc bd 8e 0a 2f 3e
       0.08526273 0.2463557 -0.099866405 0.1709387
0001b0 a6 81 2e 3e 11 22 fd bd 45 be da bd a6 b0 54 3e
       0.17041644 -0.12360013 -0.10680822 0.20770511
0001c0 b8 78 35 3e b4 cc bb 3d 4f a7 c9 3e 27 36 b4 bc
       0.17721832 0.091699034 0.3938546 -0.021998478
0001d0 f6 18 fe bc 12 f7 48 3e 95 8a e7 3d 19 52 ae bd
       -0.031017762 0.196255 0.11305729 -0.08511753
0001e0 ef 46 00 3e 5a f9 32 3e 0f cb c8 3d 0c 76 1d 3e
       0.12527059 0.17477933 0.09804355 0.15377063
0001f0 83 4b d0 bd 45 a4 19 be ce ea ac 3e 47 ca 8c 3e
       -0.10170653 -0.1500407 0.33772892 0.27498075

fc2.weight f4 [64, 128]
000000 63 59 b8 bc 52 e5 2d bd f9 b4 b4 bd 1a 95 0f 3d
       -0.02250356 -0.042455025 -0.0882358 0.035054304
000010 52 24 2a bc b4 17 9a 3d 32 63 24 bd 61 a0 f0 3c
       -0.010384636 0.07524052 -0.040133663 0.02937335
000020 e6 2e 6a bd 8e e6 4f bc f1 00 13 bd d5 10 a6 3d
       -0.057173632 -0.012689246 -0.03588957 0.08108679
000030 b8 09 42 3b c7 5d 8b b9 18 3a 4e 3d 47 96 68 3c
       0.0029607844 -0.00026582016 0.05034837 0.014195985
000040 bf 24 9b 3d 85 b7 b4 3c 94 b4 a8 bb 62 46 0e bd
       0.07575368 0.022060165 -0.0051484797 -0.03473509
000050 c2 36 22 3d 4f 99 f4 bb 27 02 0d 3d f2 2e 3b 3d
       0.039603002 -0.007464565 0.03442588 0.045699067
000060 85 7b 25 bc 26 12 a2 bd 59 d8 a4 3d 6c f6 e8 bc
       -0.01010025 -0.07913618 0.080490775 -0.028437816
000070 99 d3 2d bd 0b 73 30 3d 68 a3 83 3c 06 3b a9 bd
       -0.042438123 0.043078464 0.01606913 -0.08263211
000080 70 bf 7f 3d 0c f9 95 3d 27 e1 10 bd 8b 19 40 3d
       0.06243843 0.073228925 -0.035370972 0.04689936
000090 18 16 ac bd 24 96 a6 3c 37 6f db 3b 9e a2 86 3c
       -0.084026515 0.020335265 0.0066966075 0.016434964
0000a0 87 6f 82 bd 4b 6f e9 bc 3f e7 80 bd a3 78 87 3d
       -0.063689284 -0.028495451 -0.06294107 0.066148065
0000b0 1f a4 5e 3d b5 c7 19 bd 4a 30 fb bb e5 87 e8 3c
       0.054355737 -0.03754397 -0.0076656686 0.028385112
0000c0 20 f0 ac bd 5c 7b ed 3b 71 1b 2d 3b d0 49 3c 3d
       -0.08444238 0.0072473716 0.0026414061 0.04596883
0000d0 d4 ce 13 3d 81 fe b7 bc c4 7b 8e 3d 33 d1 96 bc
       0.03608592 -0.022460224 0.069572 -0.0184103
0000e0 d0 6b 5f 3d f3 f1 aa 3d 9a 18 6c bd bb 1d 8f bd
       0.054546177 0.083469294 -0.05764065 -0.069880925
0000f0 44 bf 1d 3d ca f6 8d 3c f0 91 46 bd 84 e0 9a 3d
       0.038512483 0.017329592 -0.04847902 0.07562354
000100 e6 1a 7b bb 2e 6b ae 3d c4 9c 82 bd fc f2 0e 3c
       -0.0038315593 0.08516537 -0.06377557 0.008724924
000110 6b af c8 3c f4 ea 8f bd e8 36 90 bd 1b 43 27 bd
       0.024497708 -0.070272356 -0.070417225 -0.04083548
000120 2c b6 8e 3d aa 3f 3b bd ad c6 5f bd 76 1d b3 3d
       0.0696834 -0.04571501 -0.05463283 0.087458536
000130 20 57 14 bd bf 88 84 bd 72 0a 7e bd 94 8c e4 3b
       -0.0362159 -0.06471395 -0.06202168 0.006974766
000140 98 89 4d 3d 51 cb 02 3d 75 c3 a7 bb 5d 22 63 3c
       0.050180048 0.03193218 -0.005119736 0.013863173
000150 a2 bd 25 bc ee 6b ab 3c 6f 31 28 bd c3 a4 6f bb
       -0.010116013 0.020925488 -0.04106277 -0.0036566711
000160 b4 1b e0 3c fb f1 75 3c af d3 9f 3d ec b0 00 3d
       0.02735696 0.015011306 0.07804047 0.031418726
000170 74 65 47 3d 70 f0 24 3c 48 37 b4 3d 48 01 35 3d
       0.048680738 0.01006709 0.087996066 0.044190675
000180 23 bb 90 3c 86 99 d4 3c 81 68 3c 3d 16 82 8f 3d
       0.017667359 0.025952112 0.0459981 0.07007234
000190 62 96 54 3d 10 21 89 bd 4a 19 0b 3d 8b cb 27 3d
       0.05190123 -0.06695759 0.033959664 0.040965598
0001a0 6f 8e ba bc 00 c6 85 3d b5 57 56 bd 86 00 a3 bd
       -0.022772996 0.06531906 -0.052329738 -0.07959084
0001b0 88 0e 04 3d 26 09 02 bd 57 49 0d bd ce 46 a2 3d
       0.03224042 -0.031747006 -0.03449377 0.07923661
0001c0 4a 41 ae 3d 91 a7 9e 3d 38 ce b3 bd 2d 52 98 bd
       0.08508547 0.077468045 -0.087795675 -0.07437549
0001d0 c6 66 91 bd 01 72 47 3d 5f dd 5a 3c bd 1c ad 3d
       -0.070996806 0.048692707 0.013358443 0.08452747
0001e0 25 62 93 bd 73 b9 78 bd 32 82 b9 3c c8 6d 3d bd
       -0.07196454 -0.060723733 0.02264509 -0.046247274
0001f0 c4 b4 aa 3d 06 11 d9 3c ce 95 97 bd 99 4b 87 3d
       0.083352596 0.026497375 -0.0740162 0.06606216
000200 40 8d 96 3e c2 22 71 3e e7 04 14 3e 03 fd 67 3e
       0.2940464 0.23548415 0.14454995 0.2265511
000210 f4 2d 97 3d f9 d2 aa 3d a8 37 32 3e 57 56 8d 3e
       0.07381812 0.08341021 0.17404044 0.27604935
000220 da 5e 49 3e a0 a8 87 3e 2f 79 9f bc ee 33 0e 3e
       0.19665089 0.26495838 -0.019466965 0.13886997
000230 70 9e ab bd b3 99 32 bd b0 f3 79 bd cc af df bc
       -0.08379829 -0.04360361 -0.061023414 -0.027305506
000240 95 5a 53 3e 7d 36 59 bd 5a ee 67 bd 21 9a 96 3e
       0.20640023 -0.05303048 -0.056623794 0.29414466
000250 ba c6 a1 3d 25 8f 51 3e 8a d5 fc 3c 21 ab 9c 3e
       0.07899232 0.20464762 0.030863542 0.3059931
000260 ea 54 47 3e 6f 7e 08 3e ad 6a 58 3d bf 1e 2b bd
       0.19465986 0.1332948 0.05283611 -0.04177737
000270 12 f1 08 bc 55 99 9a 3e da a5 04 bd d8 66 8a 3d
       -0.008358257 0.30195108 -0.03238473 0.06757897
000280 5c ec 97 3e a2 07 33 3d 26 8a 44 3d d5 1b 84 3e
       0.29672515 0.04370845 0.04798331 0.25802484
000290 b5 2a 88 3d de b2 9d bc 46 b7 48 3d 70 61 80 bc
       0.06648771 -0.01925033 0.04900291 -0.015671462
0002a0 2b 90 25 3e bd 5a 73 3e f8 13 8f 3e a4 03 64 3d
       0.16168277 0.23765083 0.27944922 0.055667534
0002b0 ca e3 26 bd 46 ad 4c bd 01 7c 8b bd 37 95 8e 3e
       -0.04074458 -0.049969934 -0.06810761 0.27848217
0002c0 96 bb 92 3e 2d 6c 57 3e e6 bf 99 3d 3d 8d 1e 3e
       0.28658742 0.2103736 0.07507305 0.15483566
0002d0 7c bf 43 bd c8 07 8f 3e ce c1 78 3d be 0b d9 bb
       -0.047790036 0.27935624 0.0607317 -0.006623714
0002e0 26 42 79 3e 46 93 92 bd c2 af 5d bb 1a 2f 5e 3e
       0.2434164 -0.071569964 -0.0033826684 0.21697655
0002f0 3c 0c 74 3e cc c9 8e 3e 05 fd 3e 3e 60 04 0d 3d
       0.23832792 0.27888334 0.18651207 0.034428
000300 8c eb 17 3e d4 33 61 b9 12 e7 86 3e 6f b7 46 3e
       0.14835948 -0.0002147698 0.26348168 0.19405912
000310 eb 22 7a 3e 33 6d a9 bd 81 ad 87 3e 96 7d 79 3d
       0.24427383 -0.08272781 0.2649956 0.060910784
000320 6e 2e 7c 3d de c7 84 bd 56 88 af bd b1 2a 11 3e
       0.061567716 -0.06483434 -0.08570926 0.14176442
000330 2b ab 72 3e a6 9e 3d 3d ea 9b 8e 3e 2b 0e 3d 3d
       0.23698108 0.046293877 0.27853328 0.04615609
000340 ef c2 9a bd c8 86 e0 3c c0 29 44 bc 08 27 51 3d
       -0.07556712 0.027408019 -0.011972845 0.051062614
000350 75 68 52 3e 99 b6 cc bb f0 e1 b2 bd dd 75 76 3e
       0.2054766 -0.0062473533 -0.087345004 0.24068399
000360 ea d6 66 bd a2 aa 66 3e a5 de 37 3e 80 6b 3c 3c
       -0.0563573 0.22526029 0.17956026 0.011500239
000370 ce 62 89 3e 4c e5 2d bd 95 e1 50 3e 74 36 a3 3c
       0.26833194 -0.042455003 0.20398553 0.019923426
000380 ab 24 d9 bc 13 76 51 3e ad d4 6f 3d cc d9 1e 3e
       -0.026506742 0.20455198 0.058552433 0.1551277
000390 bb 64 5d 3c b5 eb 0d 3e 65 32 35 3e a1 87 26 bd
       0.013512786 0.13859446 0.17695005 -0.04065669
0003a0 94 e9 9b 3d 61 fc 09 3e bf 1f 0a 3d 5d 19 02 3e
       0.07612911 0.13475181 0.03372168 0.12704988
0003b0 87 4e 27 3e 61 bb ad 3d 23 99 a3 3b d8 64 67 3e
       0.1633855 0.08483005 0.0049926206 0.22597063
0003c0 3c 10 30 3e 38 85 85 bd 4b c2 5e 3e 5a 43 59 bd
       0.17193693 -0.0651955 0.21753804 -0.053042747
0003d0 a5 50 dd bc cf 52 91 3e 00 2a 38 3e bd 3a 03 bb
       -0.027015993 0.2838349 0.17984772 -0.0020024024
0003e0 2d 33 6e 3d 45 25 8d 3e 32 bd 07 3e 94 98 9b 3e
       0.058154274 0.27567497 0.13255766 0.30389845
0003f0 e2 4d 91 3b 1c 67 b0 bd c9 d8 3f 3e de 1b 77 3e
       0.004434333 -0.086134166 0.1873504 0.24131724

fc2.bias f4 [64]
000000 fa dd 20 bd 41 57 89 3e 47 18 8c bc 6c 6f 23 3c
       -0.039274193 0.26824382 -0.01710142 0.0099752955
000010 13 53 da 3d b2 9e ae 3c 1a ec df 3d 3d 84 6d 3e
       0.106603764 0.021315906 0.10933705 0.23194976
000020 bf 3b 4f bd c2 05 5c 3e 3d 9b 77 bd 04 98 1b 3d
       -0.050594088 0.21486571 -0.06045078 0.03798677
000030 77 fa 30 bd 61 e0 43 3e 46 b4 8b 3d 55 13 67 3e
       -0.043207612 0.19128563 0.06821494 0.22565968
000040 8f 32 43 3e 35 c7 b6 bd e5 59 6f 3d c4 46 6f 3e
       0.19062255 -0.089247145 0.05843534 0.23366839
000050 55 c4 a1 bd 20 53 e7 bc 8a b4 34 3b 25 e4 42 3e
       -0.078987755 -0.02823788 0.002757343 0.19032343
000060 4f 11 0e 3e 7f 4c 10 bc d5 dd 53 3e 63 3c 94 bb
       0.1387379 -0.008807301 0.20690091 -0.0045238
000070 e2 2d 10 3e 05 39 43 3e e5 39 8b bd f1 4b 6f 3e
       0.14080003 0.1906472 -0.06798152 0.23368813
000080 be 49 77 3e 5d 00 3c 3e 14 7b 2a 3d 39 77 09 3e
       0.24149224 0.18359514 0.041621283 0.13424386
000090 c1 d7 72 3e 69 07 24 3e 35 41 38 3e 52 e4 95 3d
       0.23715116 0.16018452 0.17993625 0.07318939
0000a0 13 17 8a 3c dd 3d 42 3e 00 66 0d 3d 74 e7 51 bd
       0.016856706 0.18968911 0.034521103 -0.05124612
0000b0 e1 48 2e bd 09 25 d3 bd 23 ec 04 3d 72 8b 7c 3d
       -0.04254997 -0.10309798 0.03245176 0.061656423
0000c0 e4 dc 9c bd 1c 7b 4b 3e c5 7f 57 3e c4 4a 26 3d
       -0.07659319 0.19871181 0.21044834 0.040598646
0000d0 6a 8b 54 3e 20 8c 87 bd 34 17 35 3c bd 6a 96 3d
       0.20756307 -0.066185236 0.011052895 0.073445775
0000e0 ad f3 a3 bd 75 4a 3f 3e bb 0d 96 bd 45 86 6a bd
       -0.08005462 0.18680747 -0.07326838 -0.057256956
0000f0 be 74 8b bd 33 13 37 3e 44 11 81 bd 5f 1c f8 3d
       -0.06809376 0.17878418 -0.06302121 0.12114786

fc3.weight f4 [4, 64]
000000 7e 57 b8 bd 93 22 b7 be 04 cc 18 bd 1d 89 8e 3d
       -0.09001063 -0.35768566 -0.03730394 0.06959746
000010 ca 15 94 be f1 c4 54 3d 1f e0 57 be 7e 77 2c be
       -0.28922874 0.05194563 -0.21081589 -0.16842458
000020 4b fc 93 bd dd 90 5a be b8 99 ce bd ea f2 c5 bd
       -0.072258554 -0.21344323 -0.10087913 -0.09665473
000030 be bc c4 bd 16 c7 1c be 36 24 83 bd 5c ab 3a be
       -0.09606312 -0.1531032 -0.06403391 -0.18229431
000040 14 52 6e be 6a ef 22 bd c2 5c b1 3c 1b 10 9b be
       -0.23273498 -0.039779104 0.021650676 -0.30285725
000050 d1 92 52 3c 92 da e0 3d 41 1b 76 3d ee bc 09 be
       0.012852387 0.10979189 0.060084585 -0.13450977
000060 24 95 46 be 4a c0 c2 bd df be e8 bd 66 03 94 bd
       -0.1939283 -0.095093325 -0.11364531 -0.07227211
000070 41 15 4a be a3 f8 94 be 6a 15 db 3d 26 73 3e be
       -0.1973467 -0.29095945 0.10697444 -0.18598613
000080 63 4a 6d be 7a 47 64 be fa d8 6c 3d 8b 1d 82 be
       -0.23172908 -0.22292891 0.057824112 -0.25413164
000090 53 5b a5 be a7 fe b6 be 48 e2 65 be 2e 35 75 bb
       -0.32296237 -0.3574116 -0.224496 -0.003741573
0000a0 88 0c 9c 3d e1 34 15 be 58 7d c7 bc 0b dd df 3d
       0.07619578 -0.14570953 -0.02435176 0.109308325
0000b0 08 be ca 3d 22 0e 9f bd 38 99 d0 3c 69 b0 67 bd
       0.09899527 -0.077663675 0.025463685 -0.056564722
0000c0 79 c7 e6 3d 86 f4 21 be 87 58 13 be 08 84 50 bb
       0.11268515 -0.15815935 -0.14389239 -0.0031816978
0000d0 1b a9 9d be 62 b7 9f bd 08 53 02 bd 49 87 82 be
       -0.3079308 -0.07798649 -0.031817466 -0.2549384
0000e0 cc 04 e3 3d de 58 56 be 5c 6a 4f 3d ce 05 ab 3d
       0.11084899 -0.20932338 0.05063854 0.083507165
0000f0 c8 a3 3e 3d 0e 68 44 be 00 65 90 3a 90 76 87 be
       0.046542913 -0.19180319 0.0011016428 -0.26457644
000100 fe 11 ae bd 6b 5c 82 be 3c b1 bf bd fc 8e ac 3d
       -0.084995255 -0.25461134 -0.09359977 0.084257096
000110 5b 84 2a be f5 85 d8 3b a9 8e 18 be 43 47 88 be
       -0.16652052 0.006607766 -0.1489817 -0.26616868
000120 7e 74 65 3d 73 bc 98 be ba 96 8c bd 45 c2 b7 3d
       0.0560193 -0.29831275 -0.06864686 0.08972601
000130 50 fb cb bc 16 4b 48 be 34 05 99 3d a6 80 86 be
       -0.024900109 -0.19559893 0.074716955 -0.26270026
000140 6f 36 97 be 7a 99 27 bd 1b a4 63 bd 79 8b 95 be
       -0.29533717 -0.04091785 -0.055576425 -0.29207972
000150 89 95 b3 3d 13 d5 69 3c c3 e0 3f bc 90 3e 8c be
       0.08768756 0.014271992 -0.011711302 -0.2739148
000160 58 57 ac bd 6c 9d 9c bd f4 57 8a be b8 bd 52 3d
       -0.08415097 -0.07647213 -0.27020228 0.05145046
000170 e9 23 91 be 62 59 3d be 20 82 c0 bc 32 68 48 be
       -0.2834771 -0.18491128 -0.023499548 -0.19570997
000180 04 bb 5e be 52 68 44 be 1c 4a c0 3c f4 9f 49 be
       -0.21751028 -0.1918042 0.023472838 -0.19689924
000190 1a ce 99 be f7 68 99 be 25 fb 6e be 0e 79 87 3d
       -0.30040056 -0.29962894 -0.23337992 0.06614886
0001a0 80 6b 77 3b 05 4c 63 be a0 b2 a4 3b 02 85 76 3d
       0.0037753284 -0.22196968 0.0050261766 0.06018544
0001b0 e0 dc 7f 3c 12 10 f2 bc 9c ab 85 bb 8e 97 c1 3d
       0.015616626 -0.029548679 -0.0040792953 0.09452735
0001c0 f5 48 47 3d 48 42 77 be 55 14 9a be 3f 24 8b 3d
       0.04865356 -0.24146378 -0.30093637 0.06794023
0001d0 76 7a 9e be 60 99 a6 bc 28 20 c6 bd 56 d8 18 be
       -0.30952805 -0.020336807 -0.09674102 -0.14926276
0001e0 88 40 eb bd b5 83 51 be c8 41 c1 bd 76 93 ea 3b
       -0.11486918 -0.20460398 -0.09436375 0.007158692
0001f0 d4 49 f5 bd b8 b1 13 be 8a 7d a6 bd 72 0e 9f be
       -0.11976972 -0.14423263 -0.081294134 -0.31065708
000200 98 21 2f bd b2 2e 19 be cc 32 cf 3d 79 a7 85 bc
       -0.042756647 -0.14959219 0.101171106 -0.016315209
000210 be 82 7f be 3e 4a c9 3d 38 a3 92 be 10 2c 9d be
       -0.24952218 0.09828614 -0.2864015 -0.3069768
000220 40 9f ee 3d 5e af 47 be ce 7b a1 3d 80 41 59 bb
       0.11651468 -0.19500491 0.07884942 -0.0033150613
000230 d4 07 6c bd 41 ec 8b be 3a 0a de 3d 20 9b ff bd
       -0.057624653 -0.27328685 0.10841794 -0.124807596
000240 55 d7 3c be c0 c1 62 bb 96 8e ee 3d 33 b1 23 be
       -0.18441518 -0.0034600347 0.1164829 -0.15985565
000250 fe 75 ce bd 9f 65 7e 3d 8f ee 82 bc 90 f4 a7 be
       -0.10081099 0.062108632 -0.015982894 -0.32803774
000260 42 cd 9c be b0 fa 4e 3c 01 4e 95 be 60 2b 3c 3c
       -0.3062535 0.012633011 -0.29161075 0.011484951
000270 c0 af 5e be c7 a3 a7 be 32 72 f5 3d 13 9e 06 be
       -0.21746731 -0.3274214 0.11984672 -0.13146238
000280 e7 7d 49 be a7 5a 23 be c3 3b 71 bd de d4 23 be
       -0.19676934 -0.1595255 -0.058894884 -0.15999171
000290 62 d3 34 be 35 0a 11 be e6 54 8b be d2 3a 28 bd
       -0.17658761 -0.1416405 -0.2721321 -0.04107172
0002a0 d0 63 8c bd df 14 32 be 28 57 67 3d a4 08 23 3d
       -0.06854975 -0.17390774 0.056479603 0.039803162
0002b0 14 68 0d 3d 3c 39 8d 3d 80 04 f8 bd 45 38 38 3d
       0.034523085 0.06895682 -0.12110233 0.044975538
0002c0 58 7c 4c bd d9 1a 8d be 7a d9 23 be dd 74 9f bd
       -0.04992327 -0.27559546 -0.1600093 -0.07785962
0002d0 0e 07 aa be 14 3a 34 bd d8 58 e1 bd 73 7b 29 be
       -0.33208507 -0.0440007 -0.11003274 -0.16550998
0002e0 ec 3f 22 3d fd 70 93 be e0 2c 28 bd c8 3c 5a 3d
       0.039611742 -0.2879714 -0.04105842 0.05328062
0002f0 4a c9 a4 3d 9a 19 9a be e4 6b bd bd 6d 25 a9 be
       0.08046205 -0.30097657 -0.09249094 -0.33036366
000300 78 60 9d bd 6e 14 05 be a0 0d c4 bc 24 44 7b bd
       -0.076844156 -0.12996075 -0.023932278 -0.06134428
000310 3c 1b 56 be 9d 70 30 bd 62 72 a5 be dc 04 f2 bd
       -0.20908827 -0.043076146 -0.3231383 -0.11817333
000320 ce 7d 44 bd 0e 54 3b be 8e fc cf bd 18 6b ae 3d
       -0.04797154 -0.18293783 -0.10155593 0.0851652
000330 c4 2a 22 3d 43 53 6b be 70 9c 30 3c 0f 7d 94 be
       0.039591566 -0.2298098 0.010779485 -0.29001662
000340 cb 77 8c be 3f f6 82 3d 9d 00 b8 bc 1f 00 a0 be
       -0.27435145 0.06394624 -0.02246123 -0.31250092
000350 ec da 2a ba d6 cb 74 bd c9 67 8e 3d bc f1 6b be
       -0.0006517607 -0.059764706 0.06953389 -0.23041433
000360 5c eb 8f be c0 78 d7 bb e6 38 68 be e4 3f 2d bd
       -0.28109252 -0.006575674 -0.22677955 -0.04229726
000370 74 9b 93 be 01 64 97 be 4a b1 81 bd 45 a2 99 be
       -0.2882954 -0.29568484 -0.06332643 -0.30006614
000380 29 fc a4 be 6d bc 8a be a7 6b c4 3b 51 8d 77 be
       -0.32223633 -0.27096882 0.0059942785 -0.24175002
000390 eb ab 24 be aa fe 3c be e5 11 fe bd a9 dc ca bc
       -0.16081207 -0.18456522 -0.12405757 -0.024763422
0003a0 50 4a 34 bc ec e0 a8 be c4 47 f4 bd 67 f2 a2 bd
       -0.011004046 -0.32984102 -0.11927751 -0.07956391
0003b0 90 cc 21 bd fc 89 78 3c 6c fc 0c 3d a1 57 3d ba
       -0.039501727 0.015169617 0.034420416 -0.00072228356
0003c0 c8 ab 32 3c 88 f5 a2 be 3e 8c 80 be 14 3c 63 3a
       0.010905214 -0.3182795 -0.25106996 0.0008668315
0003d0 d6 41 cd bd 36 13 eb bd 24 b8 98 bd 0d dc 1a be
       -0.10022323 -0.114782736 -0.07456997 -0.15123005
0003e0 9e 7f ee 3d c2 a8 49 be 60 cc d3 bb 2c 6c 9f 3d
       0.11645435 -0.19693282 -0.0064635724 0.07784304
0003f0 dc fe 8b 3d c4 41 96 be f8 be ca 3d 54 a6 49 be
       0.0683572 -0.2934705 0.09899706 -0.19692355

fc3.bias f4 [4]
000000 1b 1d 16 be 37 4f 40 3b 7e be 69 be 10 49 59 be
       -0.1465954 0.002934409 -0.22826573 -0.21219277
